trained.pth (torch, 29783 bytes, 6 tensors)

l1.weight f4 [32, 154]
0	0xbd8d92a3	-0.06912734
1	0xbdad999b	-0.084765635
2	0xbdee8ebe	-0.1164832
3	0x3e3c92a7	0.18415318
4	0x3ea49c4f	0.32150504
5	0xbe43811e	-0.19092223
6	0x3e05b89b	0.13058703
7	0xbe1a8985	-0.15091522
8	0x3e153f0e	0.14574835
9	0xbd954779	-0.07289023
10	0xbcf7f973	-0.030270314
11	0xbb8ceaca	-0.00430045
12	0x3e9bba6a	0.3041566
13	0x3b7bed84	0.003844113
14	0x3e09cea2	0.1345773
15	0x3d81d22e	0.06338917
16	0xbe7ed105	-0.24884422
17	0x3e7ca99b	0.24674074
18	0x3e457b90	0.19285417
19	0xbde3f3fd	-0.111305214
20	0xbe8a6540	-0.27030373
21	0x3e9a60d3	0.30151996
22	0xbdcb7a07	-0.09935384
23	0x3e07cd9f	0.13262032
24	0xbe5355b1	-0.20638157
25	0x3e5488e6	0.20755348
26	0x3ea347f4	0.31890833
27	0xbe2a5e42	-0.16637519
28	0x3d4ecae7	0.05048647
29	0x3e993040	0.29919624
30	0x3e25c144	0.16187006
31	0xbda8b392	-0.08237375
32	0x3e0ad11c	0.13556331
33	0xbe5c8a9c	-0.2153725
34	0x3ddcc45b	0.10779639
35	0xbe42dee2	-0.19030336
36	0xbd35c3cb	-0.044376176
37	0xbe655108	-0.22394192
38	0xbe7ec5b3	-0.24880104
39	0xbe77aa1d	-0.24185987
40	0x3dd9e9af	0.10640275
41	0x3da8ac72	0.08236016
42	0xbe6a409b	-0.22876208
43	0x3db57666	0.08860473
44	0xbe1119bc	-0.14169973
45	0x3d76e8b2	0.06028051
46	0x3e27162e	0.16317055
47	0x3e05c812	0.13064602
48	0xbd71cbdc	-0.059032306
49	0xbe7e6ffc	-0.24847406
50	0x3cb51827	0.022106243
51	0xbe63ee92	-0.22258976
52	0x3e735e1f	0.23766373
53	0x3e2bac41	0.16764928
54	0x3e565311	0.20930125
55	0xbe75c5c7	-0.24001227
56	0x3e6db2b9	0.23212709
57	0xbe63434a	-0.22193637
58	0x3e3de92d	0.18545981
59	0xbe0ba59b	-0.13637392
60	0x3e888634	0.2666489
61	0x3ea2685d	0.31720248
62	0xbe7f33fd	-0.24922176
63	0xbe889c81	-0.26681903
64	0x3eb371d1	0.35047773
65	0x3e8267d3	0.25469837
66	0x3e3dcc5e	0.18534991
67	0x3e495d3b	0.19664471
68	0x3e13c865	0.14431913
69	0xbe0a58d7	-0.13510452
70	0xbe5a23e4	-0.21302754
71	0x3dfb7ea5	0.12280015
72	0xbe7ed58f	-0.24886154
73	0x3da9c6a8	0.08289844
74	0xbe859d78	-0.26096702
75	0xbe15a3f8	-0.1461333
76	0xbe4bc94d	-0.19901009
77	0x3e15dff5	0.14636214
78	0xbe4303d0	-0.19044423
79	0x3e6d654e	0.23183176
80	0xbe80c705	-0.2515184
81	0xbb0264a9	-0.0019896424
82	0x3db58f51	0.08865226
83	0xbcb182c0	-0.021668792
84	0x3adc04ac	0.001678606
85	0xbded10b6	-0.11575453
86	0xbdab829a	-0.0837452
87	0x3b371205	0.0027934324
88	0x3e0353f5	0.12824996
89	0x3e05e858	0.13076913
90	0x3e90f57c	0.2831229
91	0xbe667050	-0.22503781
92	0xbea91d37	-0.33030102
93	0xbe00086c	-0.12503213
94	0x3f057397	0.521295
95	0x3da4f796	0.08055036
96	0xbd87f0a4	-0.066376954
97	0x3e6ec2a6	0.2331644
98	0x3e6fd092	0.23419407
99	0xbe69e9fe	-0.22843167
100	0x3dcb08d3	0.099137925
101	0xbe3faad2	-0.18717507
102	0xbe1f42f0	-0.15552878
103	0xbd4063d2	-0.046970196
104	0xbe4325b5	-0.19057353
105	0xbdea36cb	-0.11436232
106	0x3e5a72e9	0.21332897
107	0xbc028186	-0.007965451
108	0x3ea20a1a	0.31648332
109	0xbe21058c	-0.15724772
110	0x3e49f94b	0.19724004
111	0x3eb6748a	0.35635787
112	0x3e5e5ed2	0.21715859
113	0x3e88477b	0.26617035
114	0xbe255e00	-0.1614914
115	0xbe45733a	-0.19282237
116	0x3ed0c8ed	0.40778294
117	0x3e7f4164	0.24927288
118	0x3d8ee8ba	0.06977983
119	0x3e765a5a	0.24057904
120	0xbde1b073	-0.11019983
121	0x3c4551f8	0.012043469
122	0x3d6bd3f8	0.057575196
123	0xbe1dfb75	-0.15427954
124	0x3e20363d	0.1564569
125	0xbe37d4e7	-0.1795231
126	0xbe3b40f9	-0.18286504
127	0xbe0528e6	-0.13003883
128	0xbe7ee2eb	-0.2489125
129	0x3e7be929	0.24600662
130	0xbd9966db	-0.07490321
131	0x3d8b3a0f	0.06798183
132	0x3c92681b	0.017871907
133	0xbd18facc	-0.037348554
134	0xbd386c98	-0.045025438
135	0x3e8da8d1	0.2766786
136	0x3e36176e	0.17782375
137	0xbddd49d7	-0.108050995
138	0xbc614f72	-0.013751851
139	0x3e92a2ea	0.2863992
140	0x3ea1e2d7	0.31618378
141	0xbe1ad165	-0.1511894
142	0x3e752d60	0.2394309
143	0x3d8ad538	0.067789495
144	0x3e06c83b	0.1316232
145	0x3dc59c9c	0.096490115
146	0xbe977511	-0.29581502
147	0x3dca7654	0.098858505
148	0x3de2f5c4	0.11082032
149	0xbe2366d9	-0.15957202
150	0xbe6ab495	-0.22920449
151	0x3e320a76	0.17386803
152	0x3e54d3ac	0.20783871
153	0x3dcfc9bc	0.101459
154	0x3e06cf23	0.13164954
155	0xbcf37018	-0.029716536
156	0x3dc47331	0.095922835
157	0x3df05f11	0.117368825
158	0xbe07e346	-0.13270292
159	0x3d4cb50d	0.04997735
160	0x3a8af92c	0.0010602823
161	0xbe0309ef	-0.12796758
162	0xbe24e134	-0.16101533
163	0xbd588bce	-0.052867703
164	0x3db1a8b8	0.08674759
165	0x3e466bf1	0.19377114
166	0xbe1d9170	-0.15387511
167	0x3e861523	0.26188
168	0xbc72f6d2	-0.014829354
169	0x3e584e0a	0.2112352
170	0xbe2f0d6a	-0.17094961
171	0x3e35e7b9	0.17764176
172	0xbe27d1c0	-0.16388607
173	0x3e21e858	0.15811288
174	0x3e8faa20	0.28059483
175	0xbd8daeb1	-0.06918085
176	0xbe49de4f	-0.1971371
177	0x3e3b44a9	0.1828791
178	0x3e376d83	0.17912869
179	0x3d99534d	0.074865915
180	0x3e8ccf18	0.2750175
181	0xbe229c13	-0.1587985
182	0xbd858ea3	-0.065213464
183	0xbe004863	-0.12527613
184	0xbc2541ad	-0.010086459
185	0xbe2cc86b	-0.16873328
186	0xbe34bfe4	-0.17651325
187	0xbe8ee772	-0.27910954
188	0x3e428318	0.18995321
189	0x3e0106f8	0.12600315
190	0xbcb42213	-0.021988904
191	0xbcc405f1	-0.023928614
192	0xbe88536b	-0.26626143
193	0x3db167e3	0.08662393
194	0xbe1fa784	-0.15591246
195	0x3d81acec	0.0633181
196	0x3e88e088	0.26733804
197	0xbd89e237	-0.067326
198	0x3e5a2846	0.21304426
199	0xbde0f974	-0.109850794
200	0x3de3d849	0.111252375
201	0x3e95ce8c	0.29259145
202	0xbbfa898f	-0.007645793
203	0xbe9d04cf	-0.3066773
204	0x3d1ef907	0.03881171
205	0xbe7b6028	-0.245484
206	0xbd8a0e0e	-0.06740962
207	0xbc6123aa	-0.013741413
208	0x3e12cc5e	0.14335772
209	0xbe729480	-0.23689461
210	0xbe15f132	-0.1464279
211	0x3e62ddf1	0.22154976
212	0xbe80f37d	-0.25185767
213	0xbbe4e9dc	-0.006985886
214	0xbe805a5b	-0.25068936
215	0xbe769588	-0.24080479
216	0x3eb7ee99	0.35924223
217	0xbd8473b7	-0.06467383
218	0xbe49cdf8	-0.19707477
219	0x3e3cee24	0.18450218
220	0x3de48359	0.11157865
221	0x3e03ce08	0.12871563
222	0xbce2d510	-0.027689487
223	0x3e8af634	0.27140963
224	0xbe12453d	-0.14284225
225	0x3dacc90d	0.08436785
226	0xbe74ace2	-0.23894075
227	0xbe625468	-0.22102511
228	0xbe36c7e8	-0.17849696
229	0xbdc8ad03	-0.09798624
230	0x3c832c77	0.016012413
231	0xbccc628d	-0.024949336
232	0x3cb1261f	0.021624623
233	0x3c824306	0.0159011
234	0xbd4a5691	-0.049398962
235	0x3e1f3915	0.15549119
236	0x3d0b78ef	0.034050878
237	0xbe5cfaca	-0.21580043
238	0x3bd7e783	0.0065888776
239	0x3e3aa0ec	0.1822545
240	0xbdc74a87	-0.09731012
241	0xbe265aeb	-0.1624562
242	0xbd9896de	-0.07450651
243	0x3debbe69	0.11510927
244	0x3e715e2c	0.2357108
245	0xbd8dc6c9	-0.06922681
246	0xbe4628c6	-0.19351491
247	0xbde5818b	-0.11206349
248	0xbed0767d	-0.407154
249	0x3ed0b255	0.40761057
250	0xbce5c3f1	-0.028047534
251	0xbe05890e	-0.13040563
252	0xbe85b1c9	-0.26112202
253	0x3b981ccc	0.0046421047
254	0xbe1876bd	-0.14889045
255	0x3e62ab9f	0.22135781

l1.bias f4 [32]
0	0x3e7ed752	0.24886826
1	0x3eb6338a	0.35586196
2	0x3ec52c3a	0.38510305
3	0x3ebe3e6f	0.37157008
4	0x3eff3c33	0.49850616
5	0x3ea3ef72	0.3201862
6	0x3eb9ab02	0.3626328
7	0x3e929f0b	0.28636965
8	0x3e857dcc	0.26072538
9	0x3e7fcff3	0.2498167
10	0x3e6a145b	0.22859327
11	0x3e774ad0	0.24149632
12	0x3ed66483	0.4187356
13	0x3e8d966b	0.27653822
14	0x3eb03506	0.34415454
15	0x3e5cdbf6	0.21568283
16	0x3e959875	0.29217878
17	0x3eca9d9e	0.39573377
18	0x3ec1a1fa	0.3781889
19	0x3ec3e14d	0.38257828
20	0x3ea5bd0c	0.32370794
21	0x3ea76690	0.32695436
22	0x3e91906c	0.28430498
23	0x3eda454f	0.42631003
24	0x3e94a82f	0.29034564
25	0x3e39b999	0.18137206
26	0x3ed1b769	0.40960243
27	0x3ef0f12d	0.47059003
28	0x3e5e2b4a	0.21696201
29	0x3e9d27da	0.30694467
30	0x3e894bb6	0.26815575
31	0x3e9e729c	0.30946815

l2.weight f4 [32, 32]
0	0x3ecc46c7	0.3989775
1	0x3c8bbfc6	0.017059218
2	0x3f1f7a1e	0.6229571
3	0x3e2315c5	0.15926273
4	0x3ecaf052	0.39636475
5	0xbe0da330	-0.13831782
6	0x3e48a71a	0.19594994
7	0x3eaaa837	0.33331463
8	0x3e27f8af	0.16403459
9	0x3f121839	0.5706821
10	0xbf2d5ff6	-0.6772455
11	0x3ee5e02a	0.44897586
12	0xbe7a073f	-0.24416827
13	0xbd97b89c	-0.07408258
14	0x3d2a8197	0.041627493
15	0xbf3aa51e	-0.729082
16	0xbdff07cc	-0.12452659
17	0xbe20ae9f	-0.15691613
18	0xbf331d2e	-0.699664
19	0xbde5d8c6	-0.11222987
20	0x3f29b971	0.66298586
21	0x3eeb28e6	0.4592964
22	0x3e007312	0.12543896
23	0x3ead0cde	0.3379888
24	0xbb7c1ba7	-0.003846863
25	0x3eb12e7c	0.34605777
26	0x3d98f135	0.074678816
27	0x3ed14f6b	0.40880904
28	0xbeababb1	-0.33529428
29	0xbe60c7c1	-0.219512
30	0x3ef60241	0.48048595
31	0x3ebeb283	0.3724557
32	0x3f3b3558	0.7312827
33	0xbc98ef28	-0.018668726
34	0x3f14c368	0.58110666
35	0xbe9405cd	-0.28910676
36	0xbc6cfcb1	-0.014464543
37	0x3ed72307	0.4201891
38	0x3e7c78bc	0.24655432
39	0x3f1fdba8	0.62444544
40	0x3e3f9a43	0.1871119
41	0x3da2768c	0.07932767
42	0x3f4fcf4d	0.8117569
43	0x3ec2b036	0.38025063
44	0x39d507a4	0.0004063222
45	0xbdfe4468	-0.12415391
46	0x3da33cf1	0.07970608
47	0x3e488582	0.19582179
48	0x3da41217	0.08011263
49	0xbef5edfb	-0.48033127
50	0x3edec475	0.4350926
51	0xbe4ad21b	-0.19806711
52	0xbf034173	-0.5127174
53	0x3e8d9e26	0.2765972
54	0x3f48eb5e	0.7848414
55	0x3e893c16	0.26803654
56	0x3ee75f58	0.4518993
57	0x3ed19d89	0.40940502
58	0xbe2b0461	-0.16700889
59	0x3e9a740a	0.30166656
60	0x3f8159f8	1.0105581
61	0xbf18c7c7	-0.59679836
62	0x3e8927a0	0.26788044
63	0x3f042e8e	0.51633537
64	0x3ef2f81d	0.4745492
65	0xbef3b6cd	-0.47600403
66	0xbe71a201	-0.23596956
67	0x3cb11630	0.021617025
68	0x3eb78565	0.3584396
69	0x3f10c2ba	0.5654713
70	0x3e0edd7a	0.13951674
71	0x3e88c304	0.26711285
72	0x3f318a61	0.69351774
73	0x3eb010a3	0.34387693
74	0x3e64e014	0.22351104
75	0x3eb9aa19	0.36262587
76	0x3db25272	0.087071314
77	0x3e313458	0.17305124
78	0x3cfbd6fb	0.03074216
79	0x3d325bd4	0.043544605
80	0xbe97fd75	-0.2968556
81	0xba310a69	-0.00067535654
82	0xbd1b116d	-0.037858415
83	0x3efbced7	0.49181244
84	0x3e9f557a	0.311199
85	0xbf0f8a2d	-0.56070215
86	0xbe98f9a6	-0.29877967
87	0x3dcd72a0	0.100316286
88	0xbe6e4993	-0.23270254
89	0x3eaf46ff	0.34233853
90	0x3dfee0a2	0.12445189
91	0xbda2ea9a	-0.07954903
92	0x3e24c314	0.16090041
93	0x3f0d6c73	0.55243605
94	0x3ec42825	0.38311878
95	0x3df47d13	0.119379185
96	0x3da1701f	0.078827135
97	0xbe001c10	-0.12510705
98	0xbda148dd	-0.07875226
99	0x3da47d15	0.0803167
100	0x3eaee896	0.34161824
101	0xbe157f45	-0.1459933
102	0x3ef227af	0.472959
103	0xbf0566dd	-0.5211008
104	0xbebf1a74	-0.3732487
105	0x3e80d9a3	0.25166044
106	0xbe2af91a	-0.16696587
107	0xbf162707	-0.586533
108	0x3f0e943c	0.5569494
109	0xbd082ca5	-0.0332457
110	0x3f35ebff	0.71063226
111	0x3f3029a5	0.68813545
112	0x3e7ea52d	0.24867697
113	0x3ed81d3e	0.4220981
114	0xbe8e70e5	-0.27820507
115	0xbe77da8c	-0.24204463
116	0x3f182c42	0.5944253
117	0xbe81e59b	-0.25370488
118	0x3f0b36e5	0.5438064
119	0x3d8eb986	0.069689795
120	0x3df29344	0.11844495
121	0x3ebcbbe3	0.36862096
122	0xbe927d7b	-0.2861136
123	0x3d1d4da6	0.03840413
124	0xbe91e0ef	-0.28491923
125	0x3eb99766	0.3624832
126	0x3df91209	0.12161643
127	0x3ef3ac05	0.47592178
128	0x3e9cf688	0.30656838
129	0x3ec0d2ce	0.3766083
130	0x3cf4ab1b	0.029866746
131	0x3eadda33	0.33955535
132	0x3e627ee2	0.22118714
133	0x3e38973b	0.1802644
134	0x3e9ef78e	0.31048244
135	0x3ebcb3ea	0.36856014
136	0xbeefd271	-0.46840242
137	0xbde81c2e	-0.113335
138	0x3ddfd605	0.10929493
139	0x3ce62a28	0.028096274
140	0x3e6b0307	0.22950374
141	0xbc01b7e3	-0.007917377
142	0x3e4bfac5	0.1991988
143	0x3e305386	0.17219362
144	0x3e8147ae	0.2525
145	0xbec84e1b	-0.3912209
146	0xbcc2dbd6	-0.023786467
147	0xbd287724	-0.041129246
148	0x3d98f370	0.07468307
149	0x3f07661d	0.5289019
150	0x3e1b2a3a	0.15152827
151	0xbe9abd96	-0.30222768
152	0xbee74f4b	-0.45177683
153	0xbe13ae31	-0.14421917
154	0x3e5f6f92	0.21819904
155	0x3dae83f6	0.08521263
156	0x3e872c3f	0.26400945
157	0x3e2c3cb6	0.16820034
158	0xbede93ea	-0.43472224
159	0xbecfc6ca	-0.40581352
160	0xbd3006cf	-0.042975243
161	0xbcb563f7	-0.022142394
162	0xbe2e2b8c	-0.170088
163	0xbd47d491	-0.048786703
164	0xbe00dde4	-0.12584645
165	0xbe0a9cd1	-0.13536383
166	0x3daa39ee	0.083118305
167	0xbe329e97	-0.1744331
168	0xbe02b458	-0.12764108
169	0x3dff2f95	0.124602474
170	0xbe14558a	-0.14485756
171	0x3e02706f	0.12738203
172	0xbe10a88f	-0.141268
173	0xbd192d4a	-0.037396707
174	0xbd7c605e	-0.06161534
175	0x3e148e6f	0.14507459
176	0xbba06cc3	-0.004895778
177	0xbc4a267e	-0.012338279
178	0x3d86519e	0.06558536
179	0x3de01108	0.109407485
180	0xbddc3de6	-0.10753994
181	0xbe1b736c	-0.15180749
182	0xbe22a801	-0.15884401
183	0xbdb93b49	-0.09044511
184	0xbc8f3223	-0.017479962
185	0xbb819b0a	-0.0039552497
186	0x3ddb929a	0.107213214
187	0x3cd8857b	0.026430836
188	0x3e00643a	0.12538233
189	0xbdfa039d	-0.122077204
190	0xbd736826	-0.059425496
191	0x3dfb3dd6	0.12267654
192	0xbe947a45	-0.28999534
193	0x3e9e2b6e	0.3089251
194	0xbd21111c	-0.039322957
195	0x3eecca45	0.4624807
196	0x3d7b5b41	0.061366323
197	0x3f183625	0.5945762
198	0x3d91e1cc	0.071231455
199	0x3e28fd20	0.1650281
200	0x3eafcd94	0.3433653
201	0xbf0c2de8	-0.5475755
202	0x3f040911	0.51576334
203	0x3ef394be	0.4757442
204	0xbe433148	-0.19061768
205	0x3f354bec	0.7081897
206	0xbed271be	-0.41102403
207	0xbeec9543	-0.46207628
208	0x3ecbe084	0.3981973
209	0x3f37e866	0.71838987
210	0x3ecb9b2c	0.39766824
211	0x3f54b1dc	0.8308389
212	0xbe0d5474	-0.13801748
213	0x3dba54a0	0.09098172
214	0xbf0a2d84	-0.539757
215	0x3e3d6b41	0.18497945
216	0x3d1e38f0	0.03862852
217	0xbe1b0a10	-0.15140557
218	0x3f098eea	0.53733695
219	0xbd24e20f	-0.04025465
220	0x3d3259f0	0.043542802
221	0x3f0af081	0.5427323
222	0x3eaeb504	0.3412248
223	0xbef45ca1	-0.4772692
224	0xbde2de93	-0.11077609
225	0xbf02d743	-0.51109713
226	0xbdb05ed1	-0.08611835
227	0xbe5fba01	-0.21848299
228	0x3ee076e3	0.43840703
229	0x3ea27970	0.31733274
230	0x3ee87b81	0.45406726
231	0x3eaaa733	0.33330688
232	0x3f4a05b6	0.78914964
233	0x3ea4a633	0.3215805
234	0x3ea00e53	0.3126093
235	0x3eb02693	0.3440443
236	0x3dd2d46b	0.10294422
237	0x3de20f13	0.110380314
238	0xbe4bb210	-0.19892144
239	0x3d997b64	0.07494238
240	0xbe9d1a0a	-0.3068393
241	0x3f044bc1	0.5167809
242	0xbbea32b8	-0.0071471594
243	0x3e4070bd	0.18793006
244	0x3cb5a09a	0.022171307
245	0xbe9ab483	-0.30215845
246	0xbcd5a2b0	-0.026078552
247	0x3f2e41e2	0.6806928
248	0x3cec8cf4	0.028875805
249	0x3edf1615	0.43571535
250	0xbe449cd7	-0.19200455
251	0x3e3b0acf	0.18265842
252	0x3e81c2af	0.25343844
253	0x3e1e343b	0.15449612
254	0x3e435833	0.19076614
255	0x3f3abed2	0.7294742

l2.bias f4 [32]
0	0x3e5e794a	0.21725956
1	0x3e4a1e84	0.19738203
2	0x3e1d63ee	0.15370151
3	0x3dcf01b0	0.10107744
4	0xbd159c0e	-0.03652578
5	0xbe19708b	-0.14984338
6	0x3e96985d	0.2941312
7	0x3e909226	0.28236502
8	0x3e6a1b1c	0.22861904
9	0x3e8143d9	0.25247076
10	0x3ecaf9cb	0.39643702
11	0x3ee14a39	0.4400194
12	0x3dcba135	0.09942857
13	0x3e86b5c4	0.2631055
14	0x3e17d376	0.1482676
15	0x3d96e9ec	0.07368836
16	0x3c10a369	0.0088280225
17	0x3d971af2	0.07378186
18	0x3eafeaa8	0.34358716
19	0x3ea2eb71	0.31820253
20	0x3e7304a7	0.23732243
21	0x3e827bd6	0.25485104
22	0x3ead36b8	0.3383081
23	0x3d6f7b0b	0.058466952
24	0x3ec93e7f	0.39305493
25	0x3e02451c	0.12721676
26	0x3c0153f3	0.00789355
27	0x3ce87cdb	0.028379848
28	0x3c13ee2a	0.009028951
29	0x3e55b3cd	0.2086937
30	0x3e1454c3	0.14485459
31	0x3db61fc3	0.08892777

l3.weight f4 [14, 32]
0	0xbf50343a	-0.8132969
1	0x3e995d46	0.29953974
2	0xbe31d8fd	-0.1736793
3	0xbf465957	-0.7748007
4	0x3d56fd84	0.052487865
5	0xbe0cb5c9	-0.1374122
6	0x3ec12710	0.37725115
7	0xbf45881b	-0.77160805
8	0xbe38ac7f	-0.18034552
9	0x3e843469	0.25821236
10	0xbf21667b	-0.63047
11	0x3d8e03c6	0.069343135
12	0x3e9fd3ab	0.31216177
13	0xbf0e1ea3	-0.555155
14	0x3e8664dd	0.26248828
15	0xbd8a1463	-0.0674217
16	0x3eb0ef46	0.3455755
17	0xbf0c9512	-0.54914963
18	0xbf432b6f	-0.7623815
19	0xbf58c988	-0.8468251
20	0xbf414b09	-0.7550512
21	0xbe294b4e	-0.16532633
22	0xbea61315	-0.32436433
23	0xbd92b1c6	-0.07162814
24	0xbe12ebdd	-0.14347787
25	0x3e352053	0.17688112
26	0xbf3459d7	-0.70449585
27	0xbd3bda81	-0.04586268
28	0x3ebd4f7f	0.36974713
29	0x3e8dc0af	0.27686068
30	0x3e87a4ed	0.26493016
31	0xbdcd1853	-0.10014405
32	0xbf458b0a	-0.7716528
33	0x3e8d5d10	0.27610064
34	0xbf272565	-0.65291435
35	0x3e60bd46	0.21947202
36	0xbe331256	-0.17487463
37	0x3d255e65	0.040373225
38	0xbf446183	-0.7671129
39	0xbe17de0c	-0.14830798
40	0x3d890d0f	0.06691944
41	0x3efd257f	0.4944267
42	0x3e0ecffd	0.13946529
43	0x3e9cd24f	0.30629203
44	0xbf0440bc	-0.51661277
45	0xbc448074	-0.011993516
46	0x3e54a537	0.2076615
47	0xbf6849fd	-0.907379
48	0x3c63c0b0	0.013900921
49	0xbeb061e7	-0.34449694
50	0xbf47bf01	-0.78025824
51	0x3e8c46df	0.2739782
52	0xbf416d8b	-0.75557774
53	0x3d944940	0.07240534
54	0xbf5d21ba	-0.8637959
55	0xbc286a99	-0.010279321
56	0x3e613fd2	0.21997002
57	0x3ede4cca	0.4341796
58	0xbf5ec73b	-0.8702275
59	0xbec2953f	-0.3800449
60	0xbec7e8b2	-0.3904472
61	0xbf279b90	-0.65471745
62	0x3e2903a6	0.16505298
63	0x3d6fcc53	0.058544468
64	0xbec1a36e	-0.3782
65	0x3e589c40	0.21153355
66	0x3d23dffe	0.040008537
67	0xbf105a46	-0.56387746
68	0xbd743c09	-0.059627566
69	0x3d9e26a3	0.07722213
70	0x3e6e9c6a	0.23301855
71	0x3e377551	0.17915846
72	0x3e5205dd	0.20510049
73	0xbf35b0de	-0.70973
74	0xbe0fa3ec	-0.14027375
75	0x3c8e7197	0.017388148
76	0xbf773bd8	-0.9657569
77	0xbf4112b2	-0.7541915
78	0xbf822b44	-1.0169454
79	0xbec7d40d	-0.3902897
80	0x3ef70daf	0.48252627
81	0xbee262c5	-0.4421598
82	0x3eb0c2ec	0.34523714
83	0x3e8e7d2f	0.27829883
84	0xbe0c694b	-0.13712041
85	0x3eca4149	0.39502934
86	0x3e929556	0.2862956
87	0xbf55364d	-0.8328598
88	0xbf38cbc4	-0.7218592
89	0x3e1a5b53	0.150739
90	0xbf322a27	-0.6959557
91	0xbec1cf9e	-0.37853712
92	0xbdf98a27	-0.121845536
93	0xbf156874	-0.5836251
94	0xbf30d5a7	-0.6907601
95	0x3e3be47d	0.1834888
96	0x3ce43632	0.027857874
97	0xbf350792	-0.70714676
98	0x3e24b593	0.1608489
99	0x3e7e5c4f	0.248399
100	0xbeef014c	-0.46680677
101	0xbd7bc46e	-0.061466627
102	0xbcea83db	-0.028627327
103	0x3e093536	0.13399205
104	0x3e4c0c53	0.19926576
105	0xbf48e0ce	-0.78468025
106	0xbd9bd3f9	-0.0760879
107	0x3e32a593	0.17445974
108	0xbe413c55	-0.18870671
109	0x3ddd3aba	0.10802217
110	0xbede37d8	-0.4340198
111	0xbec6d53d	-0.38834563
112	0xbe8efced	-0.27927342
113	0x3e07013f	0.13184069
114	0x3e96386d	0.29339924
115	0x3da9ee92	0.08297457
116	0x3ea613f9	0.32437113
117	0x3e2bdbd2	0.16783074
118	0x3e6ff56d	0.23433466
119	0x3de18315	0.1101133
120	0xbe7d230a	-0.24720398
121	0x3ccbec9a	0.024893094
122	0xbf261fd9	-0.64892346
123	0xbf754ecd	-0.95823365
124	0xbf316d60	-0.6930752
125	0x3e32e4f5	0.17470153
126	0x3deccda9	0.11562664
127	0xbf4ece8f	-0.80783933
128	0x3c0d47cb	0.008623074
129	0x3e83b669	0.25725105
130	0x3e4628af	0.19351457
131	0xbf512b56	-0.8170675
132	0xbf516544	-0.81795144
133	0x3da3a014	0.07989517
134	0x3e2123d0	0.15736318
135	0x3e7f4e8c	0.24932307
136	0xbe211810	-0.15731835
137	0x3e405811	0.18783595
138	0x3d83bbf4	0.064323336
139	0xbe155fec	-0.14587373
140	0xbf010ef9	-0.5041347
141	0xbec210c4	-0.37903416
142	0xbe901643	-0.28141984
143	0x3e17b1f8	0.14813983
144	0xbd3d836d	-0.046267916
145	0xbf5e403c	-0.86816764
146	0xbe2454a5	-0.16047914
147	0xbd6dbf03	-0.05804349
148	0x3ebdc3de	0.37063497
149	0x3e0bf3de	0.13667247
150	0x3df89056	0.12136905
151	0xbe41ff45	-0.18945034
152	0x3e8742db	0.26418194
153	0xbf38d4d6	-0.7219976
154	0xbab7b6a9	-0.0014016229
155	0xbe0fe914	-0.14053756
156	0xbe15af02	-0.14617541
157	0xbf2ec50a	-0.6826941
158	0xbf1069cb	-0.5641143
159	0x3e263526	0.16231212
160	0x3dd77c13	0.10521712
161	0x3e31a321	0.17347385
162	0xbea95ced	-0.3307871
163	0x3a9ee023	0.0012121241
164	0x3e869256	0.2628352
165	0xbc3e865e	-0.011628715
166	0xbf395d8f	-0.72408384
167	0xbe77c831	-0.2419746
168	0xbd64ce4b	-0.0558608
169	0xbe82fe19	-0.25584486
170	0x3ead0f0e	0.33800548
171	0x3dbd0f36	0.09231417
172	0xbf4bf31d	-0.79667836
173	0x3e44dbfc	0.19224542
174	0xbf29562a	-0.661471
175	0x3d87dc64	0.06633833
176	0xbe1c095e	-0.15237948
177	0x3e4c10a3	0.19928221
178	0xbdc78b6a	-0.09743388
179	0x3eb2ea11	0.34944203
180	0xbe26f3d0	-0.16303945
181	0x3e95b3d7	0.2923877
182	0xbdb5d607	-0.08878713
183	0xbeeb2372	-0.4592548
184	0x3e477b63	0.19480662
185	0xbd4dc3ea	-0.050235666
186	0x3e4e47fe	0.2014465
187	0x3dc22497	0.09479635
188	0xbf31905a	-0.6936089
189	0xbec32a8a	-0.38118392
190	0x3df59877	0.11991971
191	0xbe929bcb	-0.28634486
192	0xbf6c8598	-0.9239135
193	0xbeae5414	-0.34048522
194	0xbf52d40b	-0.823548
195	0xbdb5e7eb	-0.088821255
196	0x3ed30a29	0.4121869
197	0xbe0d5f9d	-0.13806005
198	0xbd24398e	-0.04009395
199	0xbf6edc82	-0.9330522
200	0xbf3d5364	-0.7395537
201	0x3e0c7f05	0.13720329
202	0x3e4af508	0.19820035
203	0x3e428c1c	0.1899876
204	0xbe8e0fbd	-0.27746382
205	0x3e8f0f06	0.2794115
206	0x3dd433c7	0.10361438
207	0xbf7ba023	-0.98291224
208	0x3e5f3435	0.21797259
209	0x3ef5f3ef	0.4803767
210	0x3eaca4b5	0.33719411
211	0xbd398914	-0.045296744
212	0xbf5474e0	-0.8299084
213	0xbe5fc9a1	-0.21854259
214	0x3e84e4ed	0.25955907
215	0xbedf7358	-0.43642688
216	0x3c02cccc	0.007983398
217	0x3e470101	0.19433977
218	0xbe57950a	-0.21052948
219	0xbf5b5be8	-0.8568711
220	0xbf347d75	-0.7050393
221	0x3e820886	0.25397128
222	0x3e904a91	0.2818189
223	0x3e256f93	0.16155843
224	0x3ec707e9	0.38873222
225	0x3e9ff235	0.31239477
226	0x3d021fbc	0.031768546
227	0xbe77dc2c	-0.24205083
228	0xbf363fe8	-0.71191263
229	0xbdc102cc	-0.094243616
230	0xbf3d4bca	-0.7394377
231	0x3e476d48	0.19475281
232	0xbdd071bc	-0.10177943
233	0x3eda213e	0.42603487
234	0x3d58a472	0.052891202
235	0xbf38df02	-0.7221528
236	0xbd8ae16c	-0.06781277
237	0xbf1c1ab9	-0.60978276
238	0xbcb016af	-0.021495191
239	0x3ea632bd	0.32460585
240	0xbf64d19c	-0.8938234
241	0xbf5a3911	-0.85243326
242	0xbf0501ca	-0.51955855
243	0xbf5b56b6	-0.85679185
244	0x3e63c76f	0.22244047
245	0xbf3a0bd1	-0.7267428
246	0xbf2a0095	-0.6640714
247	0x3cf1d3dc	0.029519968
248	0xbedfbfe4	-0.43701088
249	0xbf2cdfce	-0.67529
250	0x3e690067	0.2275406
251	0x3e826e56	0.25474805
252	0x3e1f9fa8	0.15588248
253	0xbf4f73d8	-0.8103614
254	0xbc8062a8	-0.015672043
255	0x3e0081f5	0.12549575

l3.bias f4 [14]
0	0xbe6ade4e	-0.22936365
1	0xbb17b059	-0.0023145883
2	0xbe29d764	-0.16586071
3	0x3de94149	0.11389405
4	0x3e6d1022	0.23150685
5	0x3cca621c	0.024704985
6	0x3e27b308	0.16376889
7	0x3d749344	0.059710756
8	0xbd901ca6	-0.07036714
9	0xbe4c36b4	-0.19942743
10	0xbd516288	-0.051119357
11	0x3d539296	0.051653467
12	0x3d9cec34	0.0766224
13	0xbe362f93	-0.17791586
