trained.pth (torch, 29783 bytes, 6 tensors)

l1.weight f4 [32, 154]
0	0x3e2aa13c	0.16663069
1	0x3d63a4d2	0.055577107
2	0x3de75de3	0.11297204
3	0x3ba79a7c	0.0051148515
4	0xbd4dc246	-0.0502341
5	0xbe0548fe	-0.13016126
6	0x3e40500a	0.18780532
7	0x3da3d032	0.079986945
8	0x3ebeb5d9	0.37248114
9	0xbcf4c382	-0.029878382
10	0x3c94c459	0.018160032
11	0x3dd0bd49	0.10192353
12	0x3e8a8d17	0.27060768
13	0x3cbc36d4	0.022975363
14	0x3e3c7bd1	0.18406607
15	0x39cea570	0.00039414642
16	0xbe3959eb	-0.18100707
17	0xbde6f41c	-0.11277029
18	0xbe22288b	-0.15835778
19	0xbdbb87bc	-0.09156749
20	0x3d2c70c7	0.04209974
21	0x3e193a91	0.14963748
22	0xbe1e3a43	-0.15451913
23	0x3d962efa	0.07333179
24	0x3d39758d	0.04527812
25	0xbde6bedb	-0.112668715
26	0xbe18b18d	-0.1491148
27	0x3d5a591c	0.053307638
28	0x3d525cfb	0.051358204
29	0x3e8ed030	0.2789321
30	0xbce5d763	-0.028056806
31	0x3d307da6	0.043088578
32	0x3d996610	0.0749017
33	0xbd7c58b1	-0.06160802
34	0x3c244514	0.010026235
35	0x3e6cb9c4	0.23117739
36	0x3dc245c9	0.09485967
37	0x3dddcfae	0.108306274
38	0xbe09cd6a	-0.13457265
39	0x3d3fb0e7	0.046799567
40	0x3e364f35	0.17803653
41	0xbdc43982	-0.09581281
42	0xbc2953de	-0.010334937
43	0x3dfa5edf	0.122251265
44	0x3e120a3e	0.1426172
45	0xbd2f461b	-0.042791467
46	0xbe2a758c	-0.16646403
47	0xbea3d243	-0.31996354
48	0x3d8ef628	0.06980544
49	0xbe858f0b	-0.26085696
50	0x3e8174e8	0.25284505
51	0xbe5681fb	-0.20948021
52	0xbe85bb64	-0.2611953
53	0xbea9f472	-0.3319431
54	0x3dfca023	0.12335231
55	0xbda9d298	-0.08292121
56	0xbe9faebb	-0.31187996
57	0x3c4fe888	0.012689717
58	0x3eaa115a	0.33216363
59	0x3da65267	0.08121186
60	0x3ec46f4c	0.38366163
61	0x3eaf7d05	0.3427507
62	0xbe6e796d	-0.23288508
63	0x3cc2fec4	0.023803122
64	0x3bfde5ae	0.007748327
65	0xbde6ddea	-0.112727955
66	0x3d565020	0.052322507
67	0x3d8ff9ad	0.07030044
68	0x3e3d8a92	0.18509892
69	0x3e212cb8	0.15739715
70	0xbe5ac1df	-0.21363018
71	0xbe1c025c	-0.15235275
72	0xbc06f091	-0.008236066
73	0x3dd406eb	0.10352882
74	0xbe2b7695	-0.16744454
75	0xbe1fe401	-0.1561432
76	0xbe364a9c	-0.17801899
77	0x3e13e79d	0.14443822
78	0xbe4bfa98	-0.19919813
79	0xbe7027b3	-0.23452644
80	0x3e972bd1	0.29525617
81	0x3d5d6843	0.05405451
82	0x3cee9014	0.029121436
83	0xbe6fb3d6	-0.23408446
84	0x3d6edde2	0.058317073
85	0x3dfb9cd8	0.12285775
86	0x3e3deee3	0.1854816
87	0x3e20fa99	0.15720595
88	0x3dd4928e	0.103795156
89	0xbcf94e07	-0.030432714
90	0x3dfba119	0.12286586
91	0xbc8e1475	-0.017343739
92	0x3e1831ae	0.14862701
93	0xbc957cb5	-0.018247942
94	0xbe50e088	-0.20398152
95	0xbe0d2b37	-0.13786016
96	0x3db1c504	0.08680156
97	0x3de5a332	0.11212768
98	0x3e41329e	0.18866965
99	0xbd55f28d	-0.052233268
100	0x3e2cb52c	0.16865987
101	0x3eaf1536	0.3419587
102	0x3e7405b4	0.238303
103	0x3c856447	0.016283168
104	0xbe194af3	-0.14969997
105	0x3e5f7a1f	0.21823929
106	0x3de60c4f	0.112328164
107	0x3e856b5e	0.26058477
108	0xbc0c0e31	-0.008548305
109	0x3dc95660	0.09830928
110	0xbda80abb	-0.08205172
111	0xbe5e008e	-0.21679899
112	0xbe8a98c5	-0.2706968
113	0x3e810dd6	0.25205868
114	0x3e0cdd4c	0.13756293
115	0xbe4ef167	-0.20209275
116	0xbe60b7a8	-0.2194506
117	0xbe130e3f	-0.14360903
118	0xbd11aa8e	-0.035563044
119	0x3e79ec9e	0.24406669
120	0x3dab2db2	0.08358325
121	0x3c74c72d	0.014940065
122	0xbcf7c081	-0.03024316
123	0x3da03229	0.07822067
124	0xbce2076c	-0.02759143
125	0x3e61785e	0.22018573
126	0x3c8e5c6c	0.017378055
127	0x3e1ee95e	0.1551871
128	0xbe98b082	-0.29822165
129	0xbde67cdc	-0.11254284
130	0xbc7e38f1	-0.015516506
131	0x3e1dc12d	0.15405722
132	0x3e6bbdb1	0.2302158
133	0x3de8eda1	0.11373449
134	0x3a892925	0.0010464533
135	0x3e308584	0.17238432
136	0x3e79cca8	0.24394476
137	0x3d4d3aab	0.05010478
138	0x3cb799f3	0.022412276
139	0x3d226286	0.03964474
140	0xbda777ac	-0.081771225
141	0xbdda94d9	-0.10672922
142	0xbe0211e6	-0.1270214
143	0x3e210616	0.15724978
144	0x3dfab421	0.12241388
145	0x3c74943e	0.014927922
146	0x3da16546	0.078806445
147	0xbeaf3db3	-0.3422676
148	0xba2395c1	-0.00062402716
149	0xbd8a63ca	-0.067573145
150	0x3d8357c0	0.06413221
151	0x3e17448a	0.1477224
152	0x3ea2d23c	0.3180102
153	0xbcb59c36	-0.022169214
154	0x3e82c601	0.2554169
155	0xbc90405b	-0.017608812
156	0x3e0d9738	0.13827217
157	0xbd10c30e	-0.03534227
158	0xbe34825b	-0.17627852
159	0x3e0483e4	0.12940937
160	0xbd1d3890	-0.03838402
161	0xbc6322f6	-0.013863316
162	0xbe564ffc	-0.20928949
163	0xbe526b75	-0.20548804
164	0x3e701c07	0.23448192
165	0x3dbc1199	0.09183044
166	0xbdc9413e	-0.09826897
167	0x3e7e9f27	0.248654
168	0xbdaa30a6	-0.0831006
169	0x3e8e2985	0.27766052
170	0x3ea04582	0.3130303
171	0x3df1df2f	0.11810147
172	0x3d87a7bb	0.06623789
173	0x3da72cf1	0.08162869
174	0x3e5e1a9c	0.21689838
175	0xbdb5d52f	-0.08878552
176	0xbe252a5c	-0.1612944
177	0x3e6652c5	0.22492512
178	0x3ea52aaf	0.32259127
179	0x3e27f821	0.16403247
180	0x3e8d881c	0.27642906
181	0x3e547d96	0.20751032
182	0xbd82b3c3	-0.06381943
183	0xbe5c9ef9	-0.21545018
184	0xbe2317c3	-0.15927033
185	0x3d9d49f7	0.07680123
186	0xbe67c26a	-0.22632757
187	0x3e887db5	0.26658407
188	0x3e29f25e	0.16596362
189	0x3e290da6	0.16509113
190	0x3e3dc4f5	0.18532164
191	0xbd9994ad	-0.07499061
192	0x3ea05db5	0.31321493
193	0xbc388bcf	-0.011263802
194	0xbdd6c62d	-0.10487018
195	0xbdfa685c	-0.12226936
196	0xbe0a0c08	-0.13481152
197	0xbd0c6d5b	-0.034283977
198	0x3e1f84f6	0.15578064
199	0xbe4caeaf	-0.19988512
200	0x3def6434	0.11689034
201	0xbe891175	-0.2677113
202	0x3e00fdf2	0.12596872
203	0xbe9875bc	-0.29777324
204	0xbdcaa7b1	-0.09895266
205	0x3ea26be1	0.3172293
206	0xbdc4c1fe	-0.096073136
207	0xbe9544ed	-0.2915415
208	0x3e39055d	0.18068452
209	0x3e9d0634	0.30668795
210	0xbe436b07	-0.19083796
211	0x3e92f4d0	0.28702402
212	0xbe731f36	-0.23742375
213	0xbbc36ab6	-0.0059636487
214	0xbe8be265	-0.27321163
215	0xbe747284	-0.23871809
216	0x3eddc6f0	0.4331584
217	0xbd92e829	-0.07173187
218	0xbd623b16	-0.05523213
219	0x3dfc7cba	0.12328477
220	0x3def152c	0.1167396
221	0x3d75ef8c	0.060042903
222	0xbdd6de01	-0.10491563
223	0x3e394253	0.18091707
224	0xbe1bffd1	-0.15234305
225	0x3b421cc0	0.0029619187
226	0x3eb96b95	0.3621489
227	0xbe0c2d5e	-0.13689181
228	0x3e8498ea	0.25897914
229	0xbe62e765	-0.22158583
230	0x3e1526f6	0.14565644
231	0xbd35b35f	-0.044360515
232	0x3e33c211	0.17554499
233	0xbe916fb4	-0.28405535
234	0xbdd271c8	-0.10275608
235	0x3ddc4e6c	0.10757145
236	0xbae6646e	-0.0017577538
237	0x3be78cbb	0.007066337
238	0x3c6e4110	0.014541879
239	0x3e7789e7	0.241737
240	0xbddf1abd	-0.10893772
241	0xbe2fd4f6	-0.17171082
242	0x3d09721c	0.03355609
243	0xbd8b4fd3	-0.06802335
244	0x3ea87c15	0.32907167
245	0x3dde73e9	0.10861952
246	0xbe45017f	-0.19238852
247	0x3d3179f2	0.043329187
248	0x3d1dfeb0	0.038572967
249	0x3ec99969	0.39374855
250	0xbe138f6a	-0.14410177
251	0xbdddf227	-0.108372025
252	0xbd20c3fd	-0.03924941
253	0x3e527f65	0.2055641
254	0x3e2420d2	0.16028145
255	0x3e7b3434	0.24531633

l1.bias f4 [32]
0	0x3ea9fcf9	0.33200815
1	0x3eba65da	0.36405832
2	0x3ebc46e2	0.3677283
3	0x3eb184d6	0.34671658
4	0x3edb7514	0.4286276
5	0x3ecd15d6	0.40055722
6	0x3eb13583	0.3461114
7	0x3ea357b0	0.31902838
8	0x3eccdf51	0.40014127
9	0x3ebde816	0.3709113
10	0x3e89ad3e	0.26889986
11	0x3e79d94b	0.24399297
12	0x3ec2c9f7	0.38044712
13	0x3e99bcf7	0.3002698
14	0x3eb66812	0.35626274
15	0x3e8a9800	0.27069092
16	0x3eb6e92e	0.35724777
17	0x3e873ee3	0.26415166
18	0x3e96697d	0.29377356
19	0x3ebdbcc4	0.3705808
20	0x3eade2c6	0.33962077
21	0x3ed397aa	0.41326648
22	0x3ebd46b9	0.3696802
23	0x3e9d4ca3	0.30722532
24	0x3ec64559	0.38724783
25	0x3ec6a9f9	0.38801554
26	0x3eae020c	0.33985937
27	0x3ec8d7e1	0.39227203
28	0x3e7adee3	0.24499087
29	0x3ea90485	0.3301126
30	0x3ec86370	0.39138365
31	0x3e7d46be	0.24734017

l2.weight f4 [32, 32]
0	0x3eb1f594	0.34757674
1	0x3e2def38	0.16985786
2	0xbed7a51a	-0.4211815
3	0xbe66c626	-0.22536525
4	0xbe502053	-0.2032483
5	0xbd50cb96	-0.050975405
6	0x3f03cdc4	0.5148585
7	0xbe320cd2	-0.17387703
8	0x3e615830	0.22006297
9	0x3edaedd0	0.42759562
10	0xbe4193cf	-0.18904041
11	0x3ec46a01	0.38362125
12	0xbf114149	-0.5674024
13	0x3ea2a306	0.31765002
14	0x3e1a06f2	0.15041712
15	0x3df18e48	0.11794716
16	0x3dbdb60b	0.092632376
17	0x3ee313e2	0.44351107
18	0xbd2ec16a	-0.042664923
19	0x3efaf7fc	0.49017322
20	0x3e8ba3da	0.27273446
21	0x3e662fab	0.22479121
22	0x3ea3cd5b	0.3199261
23	0x3eb71f2d	0.35765973
24	0x3f3d8183	0.74025744
25	0xbed8c208	-0.42335534
26	0xbc7f8ce1	-0.015597553
27	0x3ec7cc68	0.39023137
28	0x3f1e5006	0.61840856
29	0x3e059c1c	0.13047832
30	0x3ecfd7f6	0.40594453
31	0xbca936c7	-0.020656003
32	0xbdffaa6c	-0.12483677
33	0xbe20ce4d	-0.15703698
34	0x3e630b17	0.22172199
35	0xbeced1c1	-0.40394405
36	0xbca93b32	-0.02065811
37	0x3ea5bc0b	0.32370028
38	0x3e9a1b68	0.30099034
39	0x3f3c4b33	0.73552245
40	0x3ece4c1e	0.40292448
41	0x3e961b77	0.2931783
42	0x3e7bc869	0.24588169
43	0x3df4aab0	0.119466186
44	0x3dc4e86a	0.09614642
45	0x3ecf2d87	0.40464422
46	0x3f0698e1	0.52577025
47	0xbefa562b	-0.48893866
48	0xbed01105	-0.40637985
49	0xbd94adfa	-0.07259746
50	0x3e9a732f	0.30166003
51	0x3c9aa72d	0.018878544
52	0xbe06c803	-0.13162236
53	0xbe97577b	-0.2955893
54	0x3e477361	0.19477607
55	0xbe11a4b4	-0.14222986
56	0x3e7880d7	0.24267898
57	0xbe38bc80	-0.18040657
58	0x3eec76d4	0.4618441
59	0x3eb72f00	0.35778046
60	0xbeaba278	-0.3352239
61	0x3f140749	0.57823616
62	0x3e64602c	0.22302312
63	0x3f710490	0.94147587
64	0xbe60cb95	-0.2195266
65	0x3ed07d0a	0.40720397
66	0x3e85cdca	0.26133567
67	0xbdfc4a35	-0.12318841
68	0x3db2d824	0.08732632
69	0x3eafa30e	0.34304088
70	0x3e4f4d7b	0.202444
71	0x3f12b0d5	0.57301074
72	0x3ec912e9	0.3927224
73	0xbeb7aa7e	-0.35872263
74	0x3e941cbd	0.28928176
75	0x3e9790a6	0.29602545
76	0x3eda2470	0.42605925
77	0x3e335a9a	0.1751503
78	0x3f2e6def	0.68136495
79	0x3ec8a8df	0.39191338
80	0xbec93bd0	-0.39303446
81	0x3ea1eac8	0.31624436
82	0x3db6facd	0.08934555
83	0xbe0392ed	-0.12849016
84	0xbe977e22	-0.2958842
85	0x3e73248c	0.2374441
86	0x3f618364	0.8809111
87	0x3f0e8244	0.5566752
88	0xbf00f74f	-0.5037736
89	0xbd8c8de8	-0.06863004
90	0x3df16433	0.117866896
91	0x3d71eff7	0.05906674
92	0xbd9e2ee7	-0.0772379
93	0x3f3aeee8	0.7302079
94	0xbda04561	-0.07825733
95	0x3f35af05	0.70970184
96	0x3e7fb7fd	0.2497253
97	0x3e976eae	0.2957663
98	0x3f43ecd0	0.7653322
99	0x3bbbd715	0.005732427
100	0x3e8b10fc	0.27161396
101	0x3e03940a	0.12849441
102	0x3c928c19	0.01788907
103	0x3ef4e46e	0.47830528
104	0x3e5fb3f6	0.21845993
105	0x3cbeb731	0.023280712
106	0x3e96d84a	0.2946189
107	0xbdd61e92	-0.104550496
108	0x3f159036	0.58423173
109	0x3cb3dc6d	0.021955693
110	0x3df38597	0.118907146
111	0xbf05eacb	-0.5231139
112	0x3defcd65	0.11709098
113	0xbe2413c3	-0.16023163
114	0x3e35dca0	0.17759943
115	0xbeff38e7	-0.498481
116	0x3e04c99e	0.12967536
117	0xbe99c07e	-0.30029672
118	0xbeb82ffc	-0.3597411
119	0xbde127a6	-0.109938905
120	0xbd6f5808	-0.058433563
121	0x3f0d874a	0.5528456
122	0x3e8c099c	0.2735108
123	0xbe38381a	-0.17990151
124	0xbf1af1ef	-0.6052541
125	0x3ec55d3e	0.385477
126	0x3ebd47c1	0.36968806
127	0x3eecc226	0.46241874
128	0x3ed533a1	0.41640952
129	0xbe8feff4	-0.28112757
130	0x3ec88e97	0.39171287
131	0x3eae6898	0.34064174
132	0x3f32f6f1	0.6990805
133	0xbe2092da	-0.1568102
134	0x3e3c4bcb	0.18388288
135	0xbedac7e1	-0.4273062
136	0x3ed95d4e	0.42453998
137	0x3f389464	0.72101426
138	0x3cf6ef08	0.030143276
139	0xbf081a96	-0.53165567
140	0x3f13466b	0.57529324
141	0xbe3a791c	-0.18210262
142	0xbe22d35f	-0.15900944
143	0x3e679822	0.22616628
144	0x3effbe0d	0.49949685
145	0xbf18a37e	-0.5962447
146	0x3c8d4375	0.01724408
147	0x3e928c8f	0.28622863
148	0x3f38ffec	0.72265506
149	0x3f005ec0	0.5014458
150	0xbe6f3c87	-0.23362933
151	0x3d64a287	0.05581906
152	0xbe8ff6a9	-0.28117874
153	0x3ee657bb	0.44988808
154	0x3e683c1a	0.22679177
155	0x3e266b5e	0.16251895
156	0xbe5e3e93	-0.21703558
157	0xbeb13359	-0.34609488
158	0x3f107c8e	0.56440055
159	0xbe6a46a0	-0.22878504
160	0x3f0db015	0.55346805
161	0xbf4b0add	-0.7931345
162	0xbdbd0fe4	-0.092315465
163	0x3eeb4a18	0.45954967
164	0x3e9a5ea4	0.3015033
165	0x3ec08d13	0.3760763
166	0x3ee83023	0.45349225
167	0xbc061695	-0.008184095
168	0x3e9119d7	0.28340027
169	0x3f51fe5a	0.82028735
170	0x3e926d25	0.28598896
171	0x3ddc01a6	0.10742502
172	0x3ce6e166	0.02818365
173	0x3e20f163	0.15717082
174	0xbde87ddd	-0.113521315
175	0x3dbc24dc	0.09186718
176	0x3ece7784	0.40325558
177	0xbf122c1f	-0.57098573
178	0x3cfe2125	0.031021664
179	0x3d9c428d	0.07629881
180	0x3b036809	0.0020051023
181	0x3ecd7795	0.40130296
182	0xbf3661ea	-0.71243155
183	0xbf4794e9	-0.77961594
184	0x3edbc17b	0.4292105
185	0x3e84a9ca	0.2591079
186	0x3ef6d21c	0.48207176
187	0x3f28c407	0.65924114
188	0x3e4af92f	0.19821618
189	0x3c0b89c1	0.00851673
190	0x3c649ac4	0.013952915
191	0x3ed9c957	0.42536423
192	0x3dff246e	0.1245812
193	0xbdf4faa5	-0.11961869
194	0xbd02fd37	-0.031979766
195	0x3d4b67e5	0.04965963
196	0xbcade709	-0.02122833
197	0x3e408572	0.18800905
198	0xbdc9b452	-0.098488465
199	0x3d0838a8	0.033257157
200	0xbc9e92db	-0.019357136
201	0xbdbe88ef	-0.09303462
202	0xbd676529	-0.05649296
203	0xbcd478b7	-0.025936468
204	0xbe4320ef	-0.19055532
205	0xbdcb80cb	-0.09936675
206	0xbdc7fdc7	-0.09765201
207	0x3c2c7426	0.010525739
208	0xbdc3f752	-0.09568657
209	0xbd6295ba	-0.05531857
210	0x3cdd6cc0	0.027029395
211	0x3e2f2f30	0.17107844
212	0x3d9a0aca	0.07521589
213	0x3c599aed	0.013281566
214	0xbd250bbf	-0.040294405
215	0xbb05ad52	-0.0020397496
216	0x3e0efa6b	0.13962714
217	0xbdc80b24	-0.0976775
218	0x3dbc4244	0.09192327
219	0x3e0e5828	0.13900816
220	0xbc9a48fa	-0.018833626
221	0xbdb4dd51	-0.08831275
222	0x3d07ad78	0.033124417
223	0x3e5a1097	0.21295391
224	0x3eacfe1e	0.33787626
225	0x3e9d5a80	0.3073311
226	0x3e838884	0.2569009
227	0x3e628361	0.2212043
228	0x3e8714fe	0.26383203
229	0x3e9d8f7d	0.30773535
230	0xbf0ac3e6	-0.5420517
231	0x3f2c867b	0.673927
232	0xbde5d90b	-0.11223038
233	0xbe642d71	-0.2228296
234	0x3f17f85f	0.5936336
235	0x3ec276d4	0.37981284
236	0xbe82e313	-0.2556387
237	0x3f0fc26c	0.5615604
238	0xbe41a7aa	-0.18911615
239	0x3dd5979a	0.10429306
240	0xbe046509	-0.12929167
241	0x3dd99daa	0.10625775
242	0x3f1a90e3	0.6037733
243	0xbd8586b1	-0.06519831
244	0xbd320489	-0.043461356
245	0x3d6d57a1	0.057944898
246	0x3eea20ad	0.45728055
247	0xbc6a2ee1	-0.014293403
248	0xbe930304	-0.28713238
249	0x3dd96089	0.10614116
250	0x3ea7ac74	0.3274876
251	0xbea8d89d	-0.32977763
252	0xbd27771b	-0.040885072
253	0x3f159b84	0.58440423
254	0x3eda32a6	0.42616767
255	0x3ed57ce7	0.41696855

l2.bias f4 [32]
0	0x3ed46047	0.41479704
1	0xbcc8e89c	-0.02452498
2	0x3e7dcc5f	0.24784993
3	0x3c6940b6	0.01423662
4	0x3e9c2f53	0.30504856
5	0x3c2b9bab	0.010474126
6	0xbe14a59f	-0.14516304
7	0x3df234ab	0.11826452
8	0xbe2b5513	-0.16731672
9	0xbd84efc7	-0.064910464
10	0x3e1c8ef1	0.15288903
11	0x3e215e57	0.15758644
12	0x3d807593	0.062724255
13	0xbd836b7c	-0.064169854
14	0x3ec084db	0.3760136
15	0x3eac7aed	0.33687535
16	0x3e85b72e	0.26116318
17	0xbdd4ce36	-0.10390894
18	0x3e4ee3c3	0.20204072
19	0xbd73f179	-0.05955646
20	0x3e61ea73	0.22062092
21	0x3da96e56	0.08272998
22	0x3e1ee608	0.15517437
23	0x3e594c35	0.21220477
24	0x3e0ac474	0.13551503
25	0xbe36bff1	-0.17846657
26	0xbd822226	-0.063541695
27	0x3e7aa6aa	0.2447764
28	0x3e5a53ef	0.2132108
29	0x3e1734a5	0.14766176
30	0x3e5b94bd	0.21443458
31	0xbd7c5935	-0.061608512

l3.weight f4 [14, 32]
0	0xbf51cb85	-0.8195117
1	0xbefb03bb	-0.49026284
2	0xbd3545cc	-0.044256017
3	0x3e6160f5	0.22009642
4	0x3eb3ed09	0.3514178
5	0xbe998dfc	-0.29991138
6	0xbe517290	-0.20453858
7	0x3eac6736	0.33672494
8	0xbe1b674e	-0.15176126
9	0xbf5aef17	-0.8552107
10	0xbf119862	-0.5687314
11	0xbf34579f	-0.704462
12	0x3eb60806	0.35552996
13	0xbf20341b	-0.62579507
14	0xbf52790d	-0.8221596
15	0x3ea708df	0.32623956
16	0x3df0afeb	0.11752304
17	0xbf3a65f9	-0.7281185
18	0x3d1d0b93	0.038341116
19	0x3e0e9dd6	0.13927397
20	0xbf04adbb	-0.5182759
21	0x3e8a110b	0.26966128
22	0xbe99ddfa	-0.30052167
23	0x3eb0880c	0.34478796
24	0x3e5ee323	0.21766333
25	0xbf1af0e4	-0.6052382
26	0x3e8091a4	0.25111115
27	0xbf49dccf	-0.7885255
28	0xbe7857ad	-0.24252196
29	0xbf254e2d	-0.6457241
30	0xbf168f8e	-0.588128
31	0x3dd1d766	0.10246162
32	0x3e291dde	0.165153
33	0x3e0b3ded	0.13597842
34	0x3ee94246	0.45558375
35	0xbf0aac1c	-0.5416887
36	0xbf5e5e34	-0.8686249
37	0xbf3fff09	-0.7499853
38	0x3ddd962a	0.10819657
39	0xbeb1c7bc	-0.34722698
40	0x3e255036	0.1614388
41	0xbd814721	-0.06312395
42	0x3ea7cc20	0.32772923
43	0x3cb7c369	0.022432046
44	0x3ed967f9	0.42462137
45	0x3eb723dc	0.35769546
46	0x3e0b59b5	0.1360844
47	0x3e1ec4a0	0.15504694
48	0xbecca9b2	-0.39973217
49	0xbf603dfc	-0.8759458
50	0xbe4dd8bb	-0.20102207
51	0xbdc6d8e6	-0.09709339
52	0xbf1ff4a1	-0.6248265
53	0xbf7c3609	-0.9851995
54	0xbf601682	-0.87534344
55	0x3d81393f	0.06309747
56	0xbf30197e	-0.687889
57	0xbf2916d8	-0.6605048
58	0xbf21f68f	-0.63266844
59	0x3df04684	0.117322
60	0xbbf40ddd	-0.0074479417
61	0xbf48ba19	-0.7840896
62	0x3eddc1bb	0.43311867
63	0xbd41bf08	-0.047301322
64	0x3e2c4c87	0.16826068
65	0x3eba674f	0.36406943
66	0x3d728599	0.05920944
67	0xbe57a9b0	-0.21060824
68	0xbf0088b0	-0.5020857
69	0x3e4fce4d	0.20293541
70	0x3d360300	0.044436455
71	0x3e40bdbc	0.18822378
72	0xbda12d56	-0.07869975
73	0xbdc35889	-0.09538371
74	0xbe7e4fc3	-0.24835114
75	0xbf3b04a4	-0.73053956
76	0xbf289072	-0.65845406
77	0x3dcd7f7c	0.10034081
78	0xbf03af16	-0.51439035
79	0x3e1a8a8b	0.15091912
80	0x3e9baa30	0.3040328
81	0xbebe4e21	-0.37168983
82	0xbe49ff61	-0.19726326
83	0x3f018daf	0.50606817
84	0xbf8410b4	-1.0317597
85	0xbeeafc04	-0.45895398
86	0x3e95349d	0.29141703
87	0xbecdd320	-0.40200138
88	0xbbd36690	-0.0064514354
89	0x3ddced04	0.10787395
90	0x3e17d93a	0.14828959
91	0xbef188e6	-0.47174758
92	0xbf40e3f8	-0.7534785
93	0xbeff8652	-0.49907166
94	0x3ece047a	0.4023779
95	0xbe0edf94	-0.13952476
96	0x3e1cae94	0.15300971
97	0xbf853c2d	-1.0408989
98	0x3e921ea2	0.28538996
99	0xbf2d8620	-0.67782784
100	0xbee1388c	-0.43988454
101	0xbf4596b7	-0.771831
102	0xbd76fbe2	-0.060298808
103	0x3dce7fce	0.100829706
104	0xbe1c0400	-0.15235901
105	0xbf84a872	-1.0363905
106	0x3e525720	0.20541048
107	0xbd84757e	-0.06467722
108	0xbe79e32a	-0.24403062
109	0xbed172f8	-0.40908027
110	0x3ebcce78	0.36876273
111	0x3d451a69	0.04812089
112	0x3e389da0	0.18028879
113	0xbe83f26d	-0.25770894
114	0x3e9624ba	0.29324895
115	0xbf15992f	-0.58436865
116	0x3e99b9cb	0.3002456
117	0x3e2d4a67	0.16922913
118	0xbf5b3416	-0.8562635
119	0xbe6e701b	-0.23284952
120	0x3e73b066	0.2379776
121	0xbe1920e9	-0.1495396
122	0xbe14f276	-0.14545617
123	0xbe5662ab	-0.20936076
124	0x3dfdcddb	0.123927794
125	0x3c83091f	0.01599556
126	0x3d1ebbde	0.038753383
127	0x3e0636d6	0.13106856
128	0x3cab08b6	0.020878177
129	0xbf3394cd	-0.70148927
130	0xbf2b6f73	-0.66966933
131	0xbe4452c9	-0.19172205
132	0x3ea9d601	0.33171085
133	0x3eb0ee87	0.34556982
134	0xbda4ee45	-0.08053259
135	0xbe5980de	-0.21240565
136	0xbdedf830	-0.11619604
137	0x3e93c633	0.28862152
138	0xbf4b6e23	-0.7946493
139	0xbe07bc3b	-0.13255398
140	0xbf417093	-0.755624
141	0xbeef89b1	-0.46784738
142	0xbdf01a4a	-0.11723764
143	0xbd794717	-0.060858812
144	0x3ea06f91	0.31335118
145	0xbe2c13a4	-0.16804367
146	0x3d129283	0.035784256
147	0xbe066ecb	-0.13128202
148	0x3d7ff659	0.062490795
149	0x3e8eacd2	0.27866226
150	0x3d383f73	0.044982385
151	0x3e5433c1	0.20722868
152	0xbe2c9648	-0.16854203
153	0xbef775c7	-0.48332044
154	0x3dc001d8	0.09375352
155	0xbe4f4941	-0.20242788
156	0xbf87eb51	-1.0618688
157	0xbe5ae4ea	-0.21376386
158	0xbec5ae60	-0.386096
159	0x3be97806	0.0071249036
160	0xbdfe28b1	-0.12410105
161	0x3e4a0e38	0.19731987
162	0x3e439ed9	0.19103564
163	0xbe01e820	-0.12686205
164	0x3e6e26fa	0.23257056
165	0x3e9669c0	0.29377556
166	0xbe636269	-0.22205509
167	0xbe9d6d0c	-0.3074726
168	0xbaa4ed97	-0.0012583014
169	0x3db739b1	0.08946551
170	0xbe10c994	-0.14139396
171	0x3e3a8443	0.18214516
172	0xbea4f84c	-0.32220685
173	0x3e2c7bf7	0.16844164
174	0xbf334906	-0.700333
175	0x3e66ca7e	0.22538182
176	0xbd494b0b	-0.049143832
177	0xbf514c3e	-0.8175696
178	0x3f04aeb9	0.51829106
179	0xbf462640	-0.77402115
180	0xbe8dd297	-0.2769973
181	0xbe6db298	-0.2321266
182	0x3ee9ca4c	0.45662153
183	0x3c33c4a8	0.0109721795
184	0xbf102943	-0.5631296
185	0xbea370a0	-0.31921864
186	0xbf51e00f	-0.8198251
187	0xbf6b2e3f	-0.9186744
188	0xbf2c95ce	-0.67416084
189	0xbec2419e	-0.37940687
190	0x3e959917	0.2921836
191	0x3dab5bb3	0.083670996
192	0xbe650ae1	-0.22367431
193	0xbec92d1e	-0.39292234
194	0xbd34ed27	-0.04417148
195	0x3e89a63f	0.26884648
196	0xbecb1d70	-0.39670897
197	0xbf3fe074	-0.74951863
198	0x3d836779	0.0641622
199	0xbf0b1e93	-0.5434353
200	0x3d50035f	0.050784465
201	0xbf07db4e	-0.5306901
202	0x3d65eb59	0.05613265
203	0x3e76967b	0.24080841
204	0x3ecd963f	0.4015369
205	0x3dac4777	0.08412068
206	0x3e9a2efc	0.3011397
207	0xbe7ea59e	-0.24867865
208	0xbf599577	-0.8499369
209	0x3e182c7c	0.1486072
210	0xbf43bf05	-0.7646335
211	0xbec99e49	-0.39378574
212	0x3eb06d30	0.34458303
213	0xbf256a02	-0.6461488
214	0xbf15cab5	-0.5851243
215	0x3ea9e0d9	0.33179358
216	0xbe36cb86	-0.17851076
217	0xbf4fc7ed	-0.8116444
218	0xbe9c0845	-0.3047506
219	0x3e51e5ec	0.20497864
220	0x3ede71cc	0.43446195
221	0x3dc38aed	0.09547982
222	0xbe19e069	-0.15027012
223	0xbe08a291	-0.13343264
224	0x3e61e81f	0.22061203
225	0xbf14eacd	-0.5817078
226	0xbf4d7359	-0.8025413
227	0xbea1537b	-0.31509003
228	0x3dc18ea0	0.09451032
229	0x3e420940	0.18948841
230	0x3d57aed4	0.052656963
231	0xbc8c99b8	-0.017163143
232	0xbc4012ff	-0.011723279
233	0x3e84f92b	0.2597135
234	0xbef37f5a	-0.475581
235	0x3e828b7d	0.25497046
236	0xbf1f1b1f	-0.6215076
237	0x3db282a5	0.08716325
238	0x3e3c6b0e	0.18400213
239	0xbf4b7528	-0.7947564
240	0xbf228a27	-0.63492054
241	0x3e366acb	0.17814176
242	0xbf3851b6	-0.7199968
243	0xbf2089b3	-0.6271011
244	0x3de6ded5	0.112729706
245	0x3ea8b1bd	0.32948104
246	0xbe000369	-0.12501301
247	0xbf2aacbb	-0.66669816
248	0xbe86486f	-0.26227137
249	0x3e98bd15	0.29831758
250	0x3e5de09e	0.21667716
251	0x3df6c08b	0.120484434
252	0xbeee8632	-0.46586758
253	0x3eb24f33	0.3482605
254	0x3cc269d3	0.023732102
255	0x3dd1fbea	0.10253127

l3.bias f4 [14]
0	0xbe33bcd5	-0.17552502
1	0xbc65171f	-0.013982563
2	0xbd711e9e	-0.05886709
3	0x3d0ced28	0.034405857
4	0x3e6155e2	0.22005418
5	0x3d4b3a7f	0.049616333
6	0x3d3c8165	0.046021838
7	0xbcd8af5d	-0.026450807
8	0xbe6fb65b	-0.23409407
9	0xbcf74172	-0.030182574
10	0x3df46225	0.11932782
11	0xbda0ede2	-0.078578725
12	0xbd3d7256	-0.046251617
13	0x3e2473f6	0.1605986
